model/model.pth (torch, 16799 bytes, 4 tensors)

linear1.weight f4 [256, 11]
0.35523355 -0.05162952 -0.15049306 -0.28691673 0.12571153 0.019180633 0.16074698 0.12551692
-0.11368151 -0.03119073 0.102534264 -0.17558368 0.2116914 0.1266766 0.26227492 -0.03410852
-0.15869473 0.13798116 0.09761437 0.35834697 -0.086924 0.019191593 -0.23520857 0.17521288
-0.3309254 0.07483348 -0.35170785 0.36850634 0.0045861388 -0.09280354 -0.2514432 0.37815568
-0.0501715 0.070586294 0.27330953 -0.15611333 0.03511861 -0.21664566 -0.01132077 -0.19207054
-0.25290227 -0.28708836 -0.053765982 -0.12435913 -0.09542055 0.120845705 -0.28800866 -0.43211457
-0.12839912 -0.1567248 0.21386303 0.46246096 -0.14963198 -0.12581962 -0.26655665 -0.11225351
-0.0699634 0.12639381 0.43774822 -0.2626526 -0.21154805 0.28984725 -0.03294105 -0.12613232
-0.4259845 0.3662193 0.36242366 -0.36479235 0.027866734 0.20997187 -0.0441517 0.19356234
-0.19331968 0.12654607 0.25512338 -0.040554952 0.3492364 -0.08473782 -0.08515857 0.29451945
0.1337281 -0.25280347 0.00025017373 0.23344268 -0.116907604 0.2942186 0.20654927 -0.19545633
-0.13719252 0.2355443 0.09321393 -0.12161439 -0.22046617 -0.058846395 0.06702408 0.44932565
-0.023230359 0.06610564 -0.034852985 0.02670536 0.3111711 -0.2044134 0.12272919 -0.17219797
-0.307544 0.26538032 -0.35583705 0.10484854 0.2020998 -0.33279362 -0.4750176 0.29668066
0.23188782 0.03507509 0.2193327 -0.105771445 -0.096440494 0.13436437 0.02491189 -0.24171998
0.27253094 0.18289353 -0.29291922 0.283005 0.068714656 0.07238771 -0.14230797 0.3144582
0.1809225 -0.07594802 0.025129233 0.16270691 -0.24323307 0.43583685 -0.04559148 -0.14200719
0.11488049 0.3000731 0.101190895 0.30151576 0.15197583 0.0900885 -0.110552795 -0.21222794
0.020080669 0.09905376 -0.051299077 0.12227082 0.13104704 0.22224823 0.19246927 0.23122694
-0.15544023 -0.22286297 -0.20813952 0.22342621 -0.17041048 -0.0471727 0.10027948 -0.354873
0.07362481 0.09833203 -0.23732793 0.27722117 -0.22623089 0.052728474 0.27275464 0.12923232
-0.041746367 0.15459253 0.2511149 -0.18070662 0.3944587 -0.08304967 0.095122255 0.25922683
-0.17381103 0.0899392 0.1392845 -0.16087589 0.31021294 -0.0658814 -0.4508026 -0.07163021
-0.35609716 -0.025454069 0.37230688 -0.2953933 0.3842386 0.06065091 0.1293001 -0.00052615575
-0.14163609 0.08850025 -0.06106818 0.09883549 -0.3802507 -0.058898445 -0.1798722 0.09829679
-0.27560392 -0.22715722 -0.3124354 -0.2299311 0.17588083 0.4869134 0.30049688 0.25699592
-0.12606423 0.062413193 -0.045717865 0.12918675 0.22756696 0.21680818 0.26021108 -0.019346543
0.039749704 0.04368588 0.3709873 0.3489149 -0.29081476 -0.1140868 -0.11063135 0.03519292
-0.17589644 -0.2850503 0.020439917 0.0567677 0.207153 0.29872882 -0.27653193 0.25330865
0.29435316 -0.21226849 0.06809105 -0.09035821 0.10123793 -0.19335498 0.07550854 0.079330534
-0.2301341 0.30696952 -0.03389752 0.2510381 -0.2939897 -0.2421667 0.04725318 0.038957678
0.10543978 -0.08118712 -0.12601325 0.30051917 -0.009348483 -0.119114414 0.09850864 -0.20229135
00000000: 2ce1 b53e 7a79 53bd da1a 1abe c0e6 92be
00000010: 86ba 003e b420 9d3c db9a 243e 8287 003e
00000020: dad1 e8bd b483 ffbc 7cfd d13d 35cc 33be
00000030: a1c5 583e 83b7 013e e648 863e 60b5 0bbd
00000040: df80 22be ef4a 0d3e 0bea c73d 4179 b73e
00000050: 3605 b2bd b037 9d3c 84da 70be 016b 333e
00000060: 0e6f a9be 4c42 993d 0d13 b4be ddac bc3e
00000070: 5247 963b c80f bebd 2abd 80be 9f9d c13e
00000080: a180 4dbd 8c8f 903d 3aef 8b3e 2cdc 1fbe
00000090: 88d8 0f3d 5cd8 5dbe c07a 39bc 24ae 44be
000000a0: 687c 81be 3ffd 92be b839 5cbd 00b0 febd
000000b0: d96b c3bd f47d f73d df75 93be 1f3e ddbe
000000c0: 0f7b 03be 777c 20be e9fe 5a3e afc7 ec3e
000000d0: 2039 19be dcd6 00be 1d7a 88be 2be5 e5bd
000000e0: f948 8fbd 616d 013e 8920 e03e 677a 86be
000000f0: 0da0 58be dc66 943e 32ed 06bd d528 01be
00000100: a41a dabe 1981 bb3e 988f b93e 10c6 babe
00000110: c748 e43c de02 573e 6ad8 34bd 3535 463e
00000120: 98f5 45be 4b95 013e 889f 823e f31c 26bd
00000130: 1dcf b23e 068b adbd 9e67 aebd 41cb 963e
00000140: 05f0 083e 756f 81be c029 8339 990b 6f3e
00000150: 416d efbd d2a3 963e a781 533e b425 48be
00000160: 327c 0cbe 8632 713e f2e6 be3d f710 f9bd
00000170: e2c1 61be eb08 71bd ec43 893d 030e e63e
00000180: 984d bebc 6562 873d 01c2 0ebd 33c5 da3c
00000190: d251 9f3e bf51 51be 7159 fb3d aa54 30be
000001a0: 6876 9dbe eedf 873e 4630 b6be d5ba d63d
000001b0: 40f3 4e3e ed63 aabe 8235 f3be 87e6 973e
000001c0: 0074 6d3e e6aa 0f3d c098 603e b39e d8bd
000001d0: 9882 c5bd d096 093e 0514 cc3c 7185 77be
000001e0: 2d89 8b3e 7148 3b3e 82f9 95be 08e6 903e
000001f0: 45ba 8c3d 0240 943d 2eb9 11be aa00 a13e
00000200: bf43 393e a38a 9bbd d2db cd3c a49c 263e
00000210: 1712 79be 0226 df3e 22be 3abd 556a 11be
00000220: 7646 eb3d 2ea3 993e 2c3d cf3d 4660 9a3e
00000230: 8d9f 1b3e 5280 b83d 8169 e2bd 4852 59be
00000240: 3780 a43c b3dc ca3d fb1e 52bd 2069 fa3d
00000250: 3231 063e 0a95 633e aa16 453e c1c6 6c3e
00000260: b92b 1fbe 3136 64be 8722 55be d7c9 643e
00000270: 1680 2ebe 2938 41bd 545f cd3d eab1 b5be
00000280: 9bc8 963d 4e62 c93d 1806 73be efef 8d3e
00000290: 12a9 67be d0f9 573d 7fa6 8b3e 7a55 043e
000002a0: 3dfe 2abd 814d 1e3e 2292 803e 280b 39be
000002b0: 7ef6 c93e f215 aabd 75cf c23d 61b9 843e
000002c0: 85fb 31be 0b32 b83d 99a0 0e3e a6bc 24be
000002d0: 3bd4 9e3e d4ec 86bd 99cf e6be dcb2 92bd
000002e0: 5e52 b6be 0d85 d0bc 029f be3e ca3d 97be
000002f0: ecba c43e 176d 783d 3f67 043e b7ed 09ba
00000300: 0d09 11be 9e3f b53d a122 7abd 436a ca3d
00000310: 38b0 c2be 7f3f 71bd 6b30 38be d44f c93d
00000320: f51b 8dbe e79b 68be 88f7 9fbe 0f73 6bbe
00000330: 1b1a 343e b74c f93e bada 993e f894 833e
00000340: fb16 01be faa4 7f3d a842 3bbd 8849 043e
00000350: 5007 693e f702 5e3e 633a 853e a47c 9ebc
00000360: 96d0 223d f7ef 323d 0cf2 bd3e f9a4 b23e
00000370: ace5 94be 57a6 e9bd b092 e2bd 7426 103d
00000380: 321e 34be 1df2 91be 9d71 a73c 3f85 683d
00000390: eb1f 543e fcf2 983e 9895 8dbe acb1 813e
000003a0: 75b5 963e e95c 59be 5273 8b3d ba0d b9bd
000003b0: d555 cf3d d9fe 45be 39a4 9a3d 0c78 a23d
000003c0: 46a8 6bbe 1c2b 9d3e 20d8 0abd 1188 803e
000003d0: d185 96be 8cfa 77be 8d8c 413d 1692 1f3d
000003e0: d0f0 d73d 6f45 a6bd 9e09 01be a6dd 993e
000003f0: 612a 19bc 42f2 f3bd e6be c93d 7725 4fbe

linear1.bias f4 [256]
-0.0067700855 0.30398938 -0.16303028 -0.11014064 0.18011318 -0.16003291 0.121773295 -0.056823183
0.20652926 0.04407379 0.23676246 -0.20425557 0.14413491 0.31274214 0.057800874 -0.14808404
0.03849328 0.2476962 -0.051586773 -0.09091228 -0.045082193 -0.0322108 -0.040105667 -0.08714886
0.3434012 0.10376927 -0.118254095 -0.02352528 -0.07387215 -0.19613919 -0.069947846 -0.16725326
0.045843683 0.0303003 0.25377494 0.08782775 0.029132871 -0.24452087 0.20167398 0.35788217
0.17793424 0.27074322 -0.10288383 0.031977415 -0.05198338 -0.28421307 -0.30103904 -0.036974654
-0.06399437 0.029878857 -0.041954797 -0.19866498 0.07079553 0.11466694 -0.21864955 0.21422352
-0.23711419 -0.29060104 0.20168337 -0.19369963 -0.061740004 0.23266083 -0.10151163 0.28895468
0.12309013 0.058982797 -0.1456779 -0.20741625 0.108486086 -0.081483446 -0.027860276 -0.26973033
0.27964804 -0.22151108 0.14530751 0.03511947 -0.13193986 0.021785632 -0.21587554 -0.019668492
-0.059923563 -0.176345 -0.0012887726 0.025061332 -0.29135075 -0.017502017 -0.25492892 -0.042862017
-0.2902344 0.028410202 0.15707096 -0.035448786 -0.03448705 0.06758247 0.1472316 -0.09892598
-0.14726599 0.15111606 0.1848287 0.25837654 0.41257176 -0.10486942 0.0016023279 0.059126966
-0.30526698 -0.06645764 0.1179243 -0.12611645 -0.2050761 -0.21979979 -0.07906721 -0.2345577
0.2845464 -0.0056839692 0.1243014 0.24860252 -0.004612128 0.11614921 0.26545018 0.061597444
0.12493916 0.14978386 -0.028328232 0.0036669355 -0.25805482 0.12970182 -0.10392749 -0.2109802
-0.07149146 0.118688874 -0.014396485 -0.08178049 -0.09670039 0.12396954 0.16037843 -0.17351577
0.30354333 -0.30377737 0.10557828 0.1033976 -0.06366257 -0.08322256 -0.01513738 -0.2355254
-0.08451392 0.21152745 -0.4392405 -0.0017482003 0.3183487 -0.26585835 0.22002174 0.16746849
-0.011080502 0.3349113 0.038935862 0.04792308 0.13338087 -0.27200955 -0.26227415 -0.18137778
-0.21776281 -0.2376033 0.01866876 0.205948 0.124857254 -0.10943991 -0.14511558 0.06102184
0.22406466 -0.101741105 -0.15300606 -0.2480554 0.22840635 -0.04709333 0.2961068 -0.33281082
0.12982956 -0.30999604 -0.15767479 0.0060846806 -0.20650168 -0.33527124 0.08341838 0.17444742
0.017859612 -0.032436416 0.15329872 -0.253238 -0.24567987 -0.17322615 -0.10955457 0.08601614
-0.009098623 0.027904421 -0.07445015 0.36221632 0.034407437 -0.29820493 0.24764305 0.11006892
-0.019643761 0.27945235 -0.043997094 0.023409322 -0.052877452 -0.075324155 -0.27334622 0.17851713
-0.017929014 -0.04719111 -0.24855632 -0.24286674 -0.3848021 -0.015710542 -0.0671412 -0.15752181
-0.24645738 -0.077946074 0.15411806 -0.036411375 0.16453111 0.39410245 -0.28872636 0.12062185
-0.21892613 -0.21444725 -0.0892729 -0.03277685 0.2650551 -0.14669111 -0.0654198 -0.2598182
0.099635616 -0.13665591 0.41002974 -0.14891106 0.070762254 -0.07878147 0.01925444 0.09634223
-0.05429788 0.18075424 -0.05988227 0.060621206 0.18813913 0.10696605 0.05274303 0.20463713
0.3237581 -0.19343352 -0.2178772 -0.06854976 -0.21373865 0.18673146 -0.24561755 0.18762025
00000000: 98d7 ddbb 7fa4 9b3e 69f1 26be 6a91 e1bd
00000010: 976f 383e abdf 23be 4764 f93d 6dbf 68bd
00000020: 687c 533e b886 343d dc71 723e 5f28 51be
00000030: 1a98 133e bd1f a03e 9cc0 6c3d 58a3 17be
00000040: 21ab 1d3d 13a4 7d3e a74c 53bd 3830 babd
00000050: 1ba8 38bd 79ef 03bd d745 24bd 1a7b b2bd
00000060: 48d2 af3e fc84 d43d 342f f2bd 17b8 c0bc
00000070: 484a 97bd b6d8 48be d140 8fbd 7044 2bbe
00000080: 96c6 3b3d 5638 f83c caee 813e 09df b33d
00000090: 0fa8 ee3c ae63 7abe a083 4e3e 553c b73e
000000a0: 6534 363e db9e 8a3e c2b4 d2bd c0fa 023d
000000b0: 86ec 54bd 6084 91be ca21 9abe bc72 17bd
000000c0: 7b0f 83bd 81c4 f43c cbd8 2bbd d56e 4bbe
000000d0: 3ffd 903d 80d6 ea3d abe5 5fbe 695d 5b3e
000000e0: 10ce 72be a9c9 94be 1686 4e3e 3259 46be
000000f0: 16e3 7cbd a43e 6e3e 54e5 cfbd def1 933e
00000100: ae16 fc3d f297 713d 962c 15be ed64 54be
00000110: f42d de3d cbe0 a6bd 3c3b e4bc 181a 8abe
00000120: 072e 8f3e cdd3 62be 7ecb 143e 6fd9 0f3d
00000130: 3e1b 07be c877 b23c 7a0e 5dbe d11f a1bc
00000140: 6972 75bd c993 34be 08ec a8ba 6c4d cd3c
00000150: ed2b 95be 6460 8fbc 0b86 82be 1590 2fbd
00000160: 9a99 94be 83bc e83c 36d7 203e bf32 11bd
00000170: 4b42 0dbd ae68 8a3d e1c3 163e b499 cabd
00000180: e5cc 16be 2bbe 1a3e bc43 3d3e ee49 843e
00000190: 9b3c d33e c7c5 d6bd 3405 d23a 1e2f 723d
000001a0: f44b 9cbe f11a 88bd 4c82 f13d ac24 01be
000001b0: 78ff 51be 3213 61be fded a1bd e52f 70be
000001c0: 11b0 913e 9740 babb bb91 fe3d a991 7e3e
000001d0: 5521 97bb a3df ed3d 16e9 873e 9a4d 7c3d
000001e0: 1ae0 ff3d f160 193e 9c10 e8bc f850 703b
000001f0: c31f 84be 8ed0 043e f0d7 d4bd 320b 58be
00000200: 1d6a 92bd 2713 f33d 3cdf 6bbc 887c a7bd
00000210: db0a c6bd bee3 fd3d 3e3a 243e 1eae 31be
00000220: 086a 9b3e b588 9bbe 6d39 d83d 1fc2 d33d
00000230: 8661 82bd 9770 aabd c602 78bc 922d 71be
00000240: a215 adbd a79a 583e 21e4 e0be de23 e5ba
00000250: 9afe a23e 961e 88be 614d 613e dc7c 2b3e
00000260: fe8a 35bc 7e79 ab3e 367b 1f3d fe4a 443d
00000270: ff94 083e d644 8bbe cc48 86be 19bb 39be
00000280: 37fd 5ebe 484e 73be 3aef 983c 08e4 523e
00000290: 29b5 ff3d 0822 e0bd 2e99 14be 09f2 793d
000002a0: 3571 653e a45d d0bd 9fad 1cbe 3c02 7ebe
000002b0: 5be3 693e f0e4 40bd 4f9b 973e 2e66 aabe
000002c0: 0af2 043e cdb7 9ebe 8075 21be 0062 c73b
000002d0: 2d75 53be aca8 abbe 41d7 aa3d 58a2 323e
000002e0: 524e 923c 0cdc 04bd 57fa 1c3e 69a8 81be
000002f0: 8193 7bbe 3262 31be 255e e0bd 3b29 b03d
00000300: 6412 15bc d097 e43c 5279 98bd 6b74 b93e
00000310: d0ee 0c3d 51ae 98be 2496 7d3e d06b e13d
00000320: f4eb a0bc 6114 8f3e 4c36 34bd e8c4 bf3c
00000330: 0796 58bd 8d43 9abd 09f4 8bbe 32cd 363e
00000340: dedf 92bc 774b 41bd 8c85 7ebe 0fb2 78be
00000350: c804 c5be 65b3 80bc 5381 89bd 664d 21be
00000360: 535f 7cbe 31a2 9fbd 20d1 1d3e 1824 15bd
00000370: d87a 283e ccc7 c93e f1d3 93be 9708 f73d
00000380: 2c2e 60be 0f98 5bbe b6d4 b6bd 0541 06bd
00000390: 4db5 873e 3236 16be d1fa 85bd e406 85be
000003a0: c20d cc3d 87ef 0bbe 6bef d13e 247c 18be
000003b0: cdeb 903d 2e58 a1bd 7dbb 9d3c 134f c53d
000003c0: 7467 5ebd a417 393e 1c47 75bd f14d 783d
000003d0: 8ba7 403e 0411 db3d 1309 583d 658c 513e
000003e0: 9fc3 a53e 7013 46be 331b 5fbe d163 8cbd
000003f0: 4ede 5abe 8836 3f3e 2b83 7bbe 861f 403e

linear2.weight f4 [3, 256]
-0.045766734 0.029748159 0.25992727 -0.030374907 -0.14213897 0.2127546 -0.08072117 0.0023514281
-0.0400219 -0.17150953 0.07039011 0.097537145 0.05650514 0.08963186 -0.24451919 -0.1321733
-0.46616295 0.1628633 -0.2799104 -0.06659899 -0.10419104 -0.110121824 0.07591596 -0.007140479
0.17630307 -0.049213238 -0.05224697 -0.10727817 -0.07044931 -0.14088532 0.027688244 -0.24261202
-0.04225079 0.14161812 0.13170083 -0.027091874 -0.17153983 -0.024420783 0.17906383 0.13431343
-0.010314956 0.099605486 -0.19709742 -0.13299875 -0.057250742 -0.026564658 -0.008243306 -0.22778428
0.19039327 -0.07852767 0.16575947 -0.09675993 -0.038848966 -0.12220383 -0.3238673 0.14384632
-0.12556729 -0.053209502 0.05927035 -0.19935784 -0.088301145 -0.053108525 0.059353717 0.15872036
0.012186603 -0.2729707 0.23789662 -0.19209185 0.027066728 -0.22124654 0.058886018 -0.026009802
0.10404042 0.039251156 0.097968735 -0.15983534 -0.25365004 0.01764612 0.002706535 0.06509571
0.030441834 -0.07648486 -0.06015669 -0.057745684 -0.16228205 -0.067733794 -0.3891558 -0.0942102
-0.032999273 0.2065159 -0.046700343 0.10407405 -0.09311905 0.01176337 -0.07766051 -0.049859226
0.004397593 0.07238385 0.060924955 0.004686407 0.09317457 -0.07593978 -0.06580847 -0.5531232
-0.047487725 0.2717912 -0.0677554 -0.20006949 -0.29756424 -0.16944385 -0.1326937 0.1789313
0.02963319 -0.07387294 0.26126453 -0.033125605 -0.29915017 -0.10576026 0.3004317 -0.17307755
-0.06227522 -0.0154243 -0.04164264 0.28505692 -0.18744305 0.019108947 -0.10899682 -0.1853604
0.31299314 0.035451673 -0.16876918 -0.10678352 -0.048669677 -0.060102526 0.11446246 -0.12685923
0.18750378 -0.20463729 0.017500034 -0.12428456 -0.34782323 -0.12275566 -0.094288714 -0.2309261
-0.081985034 -0.04513146 -0.06884183 0.023442054 0.037145708 0.0017855763 0.019515557 0.20672004
-0.07247463 0.014166335 -0.15230289 0.14580183 -0.35972223 -0.34102184 -0.31537348 -0.28953567
-0.07557635 0.004374897 -0.090432405 0.09442167 -0.045255646 -0.19356464 -0.254851 -0.30404925
0.06488285 -0.025899028 -0.058141373 0.015297406 0.1119898 -0.4011973 0.22262174 0.05582291
0.15558022 -0.031123161 -0.2654482 0.12364407 -4.7373353e-05 -0.19282864 0.080627404 0.13649042
-0.115995705 -0.16081665 0.1500349 0.006942183 0.038079653 -0.117653 -0.045747153 -0.11730544
-0.2365524 -0.063080035 -0.1419704 0.14264856 -0.29284322 0.012485979 -0.027165437 -0.06293775
-0.08530248 0.024850644 -0.47226292 -0.19597591 -0.021810465 0.14042187 -0.3391148 0.11164788
0.29849643 -0.12442132 -0.034806788 -0.25176522 -0.011409824 -0.055890292 0.11079562 0.09442227
0.035819612 -0.07860924 -0.021201506 0.07458962 -0.048435252 0.06541608 0.0016066357 0.059917998
-0.09992182 0.15018326 0.17783052 0.056215357 0.06890081 -0.1798386 -0.10610044 -0.06091404
-0.052125517 -0.20902525 0.3169136 -0.20688996 0.042377327 -0.07313881 -0.106919594 -0.0395481
0.01717495 0.032642767 -0.13085824 0.08325013 -0.03348605 0.102257214 -0.115841955 0.058957044
0.30142364 -0.16096646 -0.2718551 -0.29538894 0.059440456 -0.34809536 -0.28138393 -0.020071266
00000000: e675 3bbd 69b2 f33c 3015 853e ccd4 f8bc
00000010: e18c 11be 58dc 593e 2451 a5bd 6b1a 1a3b
00000020: 01ee 23bd 32a0 2fbe b128 903d 8ec1 c73d
00000030: ef71 673d e990 b73d 3d63 7abe 7058 07be
00000040: e9ac eebe a3c5 263e 6a50 8fbe 0d65 88bd
00000050: 1d62 d5bd 8d87 e1bd d479 9b3d aefa e9bb
00000060: cb88 343e d293 49bd eb00 56bd a8b4 dbbd
00000070: ba47 90bd 3e44 10be 75d2 e23c 496f 78be
00000080: 2a0f 2dbd 5704 113e 95dc 063e c7ef ddbc
00000090: 23a8 2fbe 180e c8bc 825c 373e 7689 093e
000000a0: 1000 29bc f6fd cb3d e8d3 49be d330 08be
000000b0: c17f 6abd 209e d9bc ee0e 07bc 4840 69be
000000c0: 74f6 423e 1dd3 a0bd dabc 293e 122a c6bd
000000d0: 1820 1fbd 0046 fabd efd1 a5be 734c 133e
000000e0: b694 00be 35f2 59bd 77c5 723d 7624 4cbe
000000f0: 3bd7 b4bd 5388 59bd e21c 733d 9787 223e
00000100: 51aa 473c d1c2 8bbe 2c9b 733e bab3 44be
00000110: 0bbb dd3c 748e 62be 7732 713d 8212 d5bc
00000120: 2513 d53d d2c5 203d d5a3 c83d e0ab 23be
00000130: 6bde 81be 998e 903c 1f60 313b e650 853d
00000140: 2761 f93c 18a4 9cbd dd66 76bd bd86 6cbd
00000150: 442d 26be 04b8 8abd 6e3f c7be 47f1 c0bd
00000160: 3f2a 07bd e778 533e dc48 3fbd c724 d53d
00000170: 33b5 bebd 26bb 403c 790c 9fbd 3039 4cbd
00000180: af19 903b fc3d 943d 728c 793d 6e90 993b
00000190: 4fd2 be3d 5186 9bbd 97c6 86bd 7b99 0dbf
000001a0: 7d82 42bd 3728 8b3e 58c3 8abd 04df 4cbe
000001b0: 575a 98be b082 2dbe dbe0 07be c439 373e
000001c0: 4ec1 f23c b24a 97bd 77c4 853e b7ae 07bd
000001d0: 362a 99be d698 d8bd 2fd2 993e 3e3b 31be
000001e0: 4d14 7fbd 34b6 7cbc 7991 2abd fbf2 913e
000001f0: 12f1 3fbe 5e8a 9c3c ba39 dfbd 1ecf 3dbe
00000200: a340 a03e c635 113d d4d1 2cbe 51b1 dabd
00000210: db59 47bd 112e 76bd 4b6b ea3d 63e7 01be
00000220: fe00 403e 708c 51be 3b5c 8f3c e788 febd
00000230: e315 b2be 5267 fbbd 711a c1bd e477 6cbe
00000240: c5e7 a7bd c4db 38bd f2fc 8cbd 8d09 c03c
00000250: 1926 183d 000a ea3a 17df 9f3c 6bae 533e
00000260: 946d 94bd ea19 683c 4af5 1bbe 134d 153e
00000270: 832d b8be 6a9a aebe a278 a1be 053e 94be
00000280: c6c7 9abd 4c5b 8f3b a034 b9bd 2660 c13d
00000290: fc5d 39bd cf35 46be d57b 82be 58ac 9bbe
000002a0: 4de1 843d 332a d4bc a625 6ebd f9a1 7a3c
000002b0: e95a e53d bc69 cdbe f4f6 633e 90a6 643d
000002c0: 6c50 1f3e 00f6 febc d4e8 87be 1a39 fd3d
000002d0: c0b2 46b8 df74 45be fb1f a53d 25c4 0b3e
000002e0: 288f edbd 1fad 24be c0a2 193e 407b e33b
000002f0: 69f9 1b3d 0ef4 f0bd 5e61 3bbd d63d f0bd
00000300: cb3a 72be 1b30 81bd b060 11be 7712 123e
00000310: 8cef 95be fe91 4c3c 0d8a debc 82e5 80bd
00000320: 11b3 aebd 9493 cb3c 72cc f1be e9ad 48be
00000330: dcab b2bc c0ca 0f3e 74a0 adbe a5a7 e43d
00000340: 86d4 983e 9bd0 febd 9091 0ebd 5fe7 80be
00000350: 45f0 3abc 38ed 64bd d0e8 e23d 7760 c13d
00000360: 96b7 123d e2fd a0bd c8ae adbc 71c2 983d
00000370: 0b64 46bd def8 853d c095 d23a 936c 753d
00000380: d0a3 ccbd a4c9 193e 3419 363e 1342 663d
00000390: de1b 8d3d 9c27 38be 304b d9bd 0081 79bd
000003a0: 9181 55bd b70a 56be 8042 a23e f6da 53be
000003b0: d993 2d3d cdc9 95bd a9f8 dabd 30fd 21bd
000003c0: 7bb2 8c3c 6cb4 053d b4ff 05be 0b7f aa3d
000003d0: ab28 09bd 3b6c d13d 8c3e edbd f17c 713d
000003e0: 3354 9a3e 64d4 24be 9730 8bbe 383d 97be
000003f0: d677 733d 8e39 b2be 8e11 90be 7f6c a4bc

linear2.bias f4 [3]
0.00024148573 -0.06479362 -0.10536823
00000000: 5537 7d39 84b2 84bd 4ccb d7bd
